{"config": {"input_layers": [["input_1", 0, 0]], "output_layers": [["output", 0, 0], ["auxilliary_output_1", 0, 0], ["auxilliary_output_2", 0, 0]], "layers": [{"config": {"sparse": false, "batch_input_shape": [null, 100, 100, 3], "dtype": "float32", "name": "input_1"}, "inbound_nodes": [], "class_name": "InputLayer", "name": "input_1"}, {"config": {"activity_regularizer": null, "bias_constraint": null, "activation": "relu", "strides": [2, 2], "bias_regularizer": null, "trainable": true, "kernel_initializer": {"config": {"seed": null, "scale": 1.0, "mode": "fan_avg", "distribution": "uniform"}, "class_name": "VarianceScaling"}, "bias_initializer": {"config": {"value": 0.2}, "class_name": "Constant"}, "dilation_rate": [1, 1], "name": "conv_1_7x7/2", "kernel_constraint": null, "filters": 64, "kernel_size": [7, 7], "padding": "same", "kernel_regularizer": null, "data_format": "channels_last", "use_bias": true}, "inbound_nodes": [[["input_1", 0, 0, {}]]], "class_name": "Conv2D", "name": "conv_1_7x7/2"}, {"config": {"padding": "same", "strides": [2, 2], "trainable": true, "pool_size": [3, 3], "data_format": "channels_last", "name": "max_pool_1_3x3/2"}, "inbound_nodes": [[["conv_1_7x7/2", 0, 0, {}]]], "class_name": "MaxPooling2D", "name": "max_pool_1_3x3/2"}, {"config": {"activity_regularizer": null, "bias_constraint": null, "activation": "relu", "strides": [1, 1], "bias_regularizer": null, "trainable": true, "kernel_initializer": {"config": {"seed": null, "scale": 1.0, "mode": "fan_avg", "distribution": "uniform"}, "class_name": "VarianceScaling"}, "bias_initializer": {"config": {}, "class_name": "Zeros"}, "dilation_rate": [1, 1], "name": "conv_2a_3x3/1", "kernel_constraint": null, "filters": 64, "kernel_size": [1, 1], "padding": "same", "kernel_regularizer": null, "data_format": "channels_last", "use_bias": true}, "inbound_nodes": [[["max_pool_1_3x3/2", 0, 0, {}]]], "class_name": "Conv2D", "name": "conv_2a_3x3/1"}, {"config": {"activity_regularizer": null, "bias_constraint": null, "activation": "relu", "strides": [1, 1], "bias_regularizer": null, "trainable": true, "kernel_initializer": {"config": {"seed": null, "scale": 1.0, "mode": "fan_avg", "distribution": "uniform"}, "class_name": "VarianceScaling"}, "bias_initializer": {"config": {}, "class_name": "Zeros"}, "dilation_rate": [1, 1], "name": "conv_2b_3x3/1", "kernel_constraint": null, "filters": 192, "kernel_size": [3, 3], "padding": "same", "kernel_regularizer": null, "data_format": "channels_last", "use_bias": true}, "inbound_nodes": [[["conv_2a_3x3/1", 0, 0, {}]]], "class_name": "Conv2D", "name": "conv_2b_3x3/1"}, {"config": {"padding": "same", "strides": [2, 2], "trainable": true, "pool_size": [3, 3], "data_format": "channels_last", "name": "max_pool_2_3x3/2"}, "inbound_nodes": [[["conv_2b_3x3/1", 0, 0, {}]]], "class_name": "MaxPooling2D", "name": "max_pool_2_3x3/2"}, {"config": {"activity_regularizer": null, "bias_constraint": null, "activation": "relu", "strides": [1, 1], "bias_regularizer": null, "trainable": true, "kernel_initializer": {"config": {"seed": null, "scale": 1.0, "mode": "fan_avg", "distribution": "uniform"}, "class_name": "VarianceScaling"}, "bias_initializer": {"config": {"value": 0.2}, "class_name": "Constant"}, "dilation_rate": [1, 1], "name": "conv2d_2", "kernel_constraint": null, "filters": 96, "kernel_size": [1, 1], "padding": "same", "kernel_regularizer": null, "data_format": "channels_last", "use_bias": true}, "inbound_nodes": [[["max_pool_2_3x3/2", 0, 0, {}]]], "class_name": "Conv2D", "name": "conv2d_2"}, {"config": {"activity_regularizer": null, "bias_constraint": null, "activation": "relu", "strides": [1, 1], "bias_regularizer": null, "trainable": true, "kernel_initializer": {"config": {"seed": null, "scale": 1.0, "mode": "fan_avg", "distribution": "uniform"}, "class_name": "VarianceScaling"}, "bias_initializer": {"config": {"value": 0.2}, "class_name": "Constant"}, "dilation_rate": [1, 1], "name": "conv2d_4", "kernel_constraint": null, "filters": 16, "kernel_size": [1, 1], "padding": "same", "kernel_regularizer": null, "data_format": "channels_last", "use_bias": true}, "inbound_nodes": [[["max_pool_2_3x3/2", 0, 0, {}]]], "class_name": "Conv2D", "name": "conv2d_4"}, {"config": {"padding": "same", "strides": [1, 1], "trainable": true, "pool_size": [3, 3], "data_format": "channels_last", "name": "max_pooling2d_1"}, "inbound_nodes": [[["max_pool_2_3x3/2", 0, 0, {}]]], "class_name": "MaxPooling2D", "name": "max_pooling2d_1"}, {"config": {"activity_regularizer": null, "bias_constraint": null, "activation": "relu", "strides": [1, 1], "bias_regularizer": null, "trainable": true, "kernel_initializer": {"config": {"seed": null, "scale": 1.0, "mode": "fan_avg", "distribution": "uniform"}, "class_name": "VarianceScaling"}, "bias_initializer": {"config": {"value": 0.2}, "class_name": "Constant"}, "dilation_rate": [1, 1], "name": "conv2d_1", "kernel_constraint": null, "filters": 64, "kernel_size": [1, 1], "padding": "same", "kernel_regularizer": null, "data_format": "channels_last", "use_bias": true}, "inbound_nodes": [[["max_pool_2_3x3/2", 0, 0, {}]]], "class_name": "Conv2D", "name": "conv2d_1"}, {"config": {"activity_regularizer": null, "bias_constraint": null, "activation": "relu", "strides": [1, 1], "bias_regularizer": null, "trainable": true, "kernel_initializer": {"config": {"seed": null, "scale": 1.0, "mode": "fan_avg", "distribution": "uniform"}, "class_name": "VarianceScaling"}, "bias_initializer": {"config": {"value": 0.2}, "class_name": "Constant"}, "dilation_rate": [1, 1], "name": "conv2d_3", "kernel_constraint": null, "filters": 128, "kernel_size": [3, 3], "padding": "same", "kernel_regularizer": null, "data_format": "channels_last", "use_bias": true}, "inbound_nodes": [[["conv2d_2", 0, 0, {}]]], "class_name": "Conv2D", "name": "conv2d_3"}, {"config": {"activity_regularizer": null, "bias_constraint": null, "activation": "relu", "strides": [1, 1], "bias_regularizer": null, "trainable": true, "kernel_initializer": {"config": {"seed": null, "scale": 1.0, "mode": "fan_avg", "distribution": "uniform"}, "class_name": "VarianceScaling"}, "bias_initializer": {"config": {"value": 0.2}, "class_name": "Constant"}, "dilation_rate": [1, 1], "name": "conv2d_5", "kernel_constraint": null, "filters": 32, "kernel_size": [5, 5], "padding": "same", "kernel_regularizer": null, "data_format": "channels_last", "use_bias": true}, "inbound_nodes": [[["conv2d_4", 0, 0, {}]]], "class_name": "Conv2D", "name": "conv2d_5"}, {"config": {"activity_regularizer": null, "bias_constraint": null, "activation": "relu", "strides": [1, 1], "bias_regularizer": null, "trainable": true, "kernel_initializer": {"config": {"seed": null, "scale": 1.0, "mode": "fan_avg", "distribution": "uniform"}, "class_name": "VarianceScaling"}, "bias_initializer": {"config": {"value": 0.2}, "class_name": "Constant"}, "dilation_rate": [1, 1], "name": "conv2d_6", "kernel_constraint": null, "filters": 32, "kernel_size": [1, 1], "padding": "same", "kernel_regularizer": null, "data_format": "channels_last", "use_bias": true}, "inbound_nodes": [[["max_pooling2d_1", 0, 0, {}]]], "class_name": "Conv2D", "name": "conv2d_6"}, {"config": {"trainable": true, "axis": 3, "name": "inception_3a"}, "inbound_nodes": [[["conv2d_1", 0, 0, {}], ["conv2d_3", 0, 0, {}], ["conv2d_5", 0, 0, {}], ["conv2d_6", 0, 0, {}]]], "class_name": "Concatenate", "name": "inception_3a"}, {"config": {"activity_regularizer": null, "bias_constraint": null, "activation": "relu", "strides": [1, 1], "bias_regularizer": null, "trainable": true, "kernel_initializer": {"config": {"seed": null, "scale": 1.0, "mode": "fan_avg", "distribution": "uniform"}, "class_name": "VarianceScaling"}, "bias_initializer": {"config": {"value": 0.2}, "class_name": "Constant"}, "dilation_rate": [1, 1], "name": "conv2d_8", "kernel_constraint": null, "filters": 128, "kernel_size": [1, 1], "padding": "same", "kernel_regularizer": null, "data_format": "channels_last", "use_bias": true}, "inbound_nodes": [[["inception_3a", 0, 0, {}]]], "class_name": "Conv2D", "name": "conv2d_8"}, {"config": {"activity_regularizer": null, "bias_constraint": null, "activation": "relu", "strides": [1, 1], "bias_regularizer": null, "trainable": true, "kernel_initializer": {"config": {"seed": null, "scale": 1.0, "mode": "fan_avg", "distribution": "uniform"}, "class_name": "VarianceScaling"}, "bias_initializer": {"config": {"value": 0.2}, "class_name": "Constant"}, "dilation_rate": [1, 1], "name": "conv2d_10", "kernel_constraint": null, "filters": 32, "kernel_size": [1, 1], "padding": "same", "kernel_regularizer": null, "data_format": "channels_last", "use_bias": true}, "inbound_nodes": [[["inception_3a", 0, 0, {}]]], "class_name": "Conv2D", "name": "conv2d_10"}, {"config": {"padding": "same", "strides": [1, 1], "trainable": true, "pool_size": [3, 3], "data_format": "channels_last", "name": "max_pooling2d_2"}, "inbound_nodes": [[["inception_3a", 0, 0, {}]]], "class_name": "MaxPooling2D", "name": "max_pooling2d_2"}, {"config": {"activity_regularizer": null, "bias_constraint": null, "activation": "relu", "strides": [1, 1], "bias_regularizer": null, "trainable": true, "kernel_initializer": {"config": {"seed": null, "scale": 1.0, "mode": "fan_avg", "distribution": "uniform"}, "class_name": "VarianceScaling"}, "bias_initializer": {"config": {"value": 0.2}, "class_name": "Constant"}, "dilation_rate": [1, 1], "name": "conv2d_7", "kernel_constraint": null, "filters": 128, "kernel_size": [1, 1], "padding": "same", "kernel_regularizer": null, "data_format": "channels_last", "use_bias": true}, "inbound_nodes": [[["inception_3a", 0, 0, {}]]], "class_name": "Conv2D", "name": "conv2d_7"}, {"config": {"activity_regularizer": null, "bias_constraint": null, "activation": "relu", "strides": [1, 1], "bias_regularizer": null, "trainable": true, "kernel_initializer": {"config": {"seed": null, "scale": 1.0, "mode": "fan_avg", "distribution": "uniform"}, "class_name": "VarianceScaling"}, "bias_initializer": {"config": {"value": 0.2}, "class_name": "Constant"}, "dilation_rate": [1, 1], "name": "conv2d_9", "kernel_constraint": null, "filters": 192, "kernel_size": [3, 3], "padding": "same", "kernel_regularizer": null, "data_format": "channels_last", "use_bias": true}, "inbound_nodes": [[["conv2d_8", 0, 0, {}]]], "class_name": "Conv2D", "name": "conv2d_9"}, {"config": {"activity_regularizer": null, "bias_constraint": null, "activation": "relu", "strides": [1, 1], "bias_regularizer": null, "trainable": true, "kernel_initializer": {"config": {"seed": null, "scale": 1.0, "mode": "fan_avg", "distribution": "uniform"}, "class_name": "VarianceScaling"}, "bias_initializer": {"config": {"value": 0.2}, "class_name": "Constant"}, "dilation_rate": [1, 1], "name": "conv2d_11", "kernel_constraint": null, "filters": 96, "kernel_size": [5, 5], "padding": "same", "kernel_regularizer": null, "data_format": "channels_last", "use_bias": true}, "inbound_nodes": [[["conv2d_10", 0, 0, {}]]], "class_name": "Conv2D", "name": "conv2d_11"}, {"config": {"activity_regularizer": null, "bias_constraint": null, "activation": "relu", "strides": [1, 1], "bias_regularizer": null, "trainable": true, "kernel_initializer": {"config": {"seed": null, "scale": 1.0, "mode": "fan_avg", "distribution": "uniform"}, "class_name": "VarianceScaling"}, "bias_initializer": {"config": {"value": 0.2}, "class_name": "Constant"}, "dilation_rate": [1, 1], "name": "conv2d_12", "kernel_constraint": null, "filters": 64, "kernel_size": [1, 1], "padding": "same", "kernel_regularizer": null, "data_format": "channels_last", "use_bias": true}, "inbound_nodes": [[["max_pooling2d_2", 0, 0, {}]]], "class_name": "Conv2D", "name": "conv2d_12"}, {"config": {"trainable": true, "axis": 3, "name": "inception_3b"}, "inbound_nodes": [[["conv2d_7", 0, 0, {}], ["conv2d_9", 0, 0, {}], ["conv2d_11", 0, 0, {}], ["conv2d_12", 0, 0, {}]]], "class_name": "Concatenate", "name": "inception_3b"}, {"config": {"padding": "same", "strides": [2, 2], "trainable": true, "pool_size": [3, 3], "data_format": "channels_last", "name": "max_pool_3_3x3/2"}, "inbound_nodes": [[["inception_3b", 0, 0, {}]]], "class_name": "MaxPooling2D", "name": "max_pool_3_3x3/2"}, {"config": {"activity_regularizer": null, "bias_constraint": null, "activation": "relu", "strides": [1, 1], "bias_regularizer": null, "trainable": true, "kernel_initializer": {"config": {"seed": null, "scale": 1.0, "mode": "fan_avg", "distribution": "uniform"}, "class_name": "VarianceScaling"}, "bias_initializer": {"config": {"value": 0.2}, "class_name": "Constant"}, "dilation_rate": [1, 1], "name": "conv2d_14", "kernel_constraint": null, "filters": 96, "kernel_size": [1, 1], "padding": "same", "kernel_regularizer": null, "data_format": "channels_last", "use_bias": true}, "inbound_nodes": [[["max_pool_3_3x3/2", 0, 0, {}]]], "class_name": "Conv2D", "name": "conv2d_14"}, {"config": {"activity_regularizer": null, "bias_constraint": null, "activation": "relu", "strides": [1, 1], "bias_regularizer": null, "trainable": true, "kernel_initializer": {"config": {"seed": null, "scale": 1.0, "mode": "fan_avg", "distribution": "uniform"}, "class_name": "VarianceScaling"}, "bias_initializer": {"config": {"value": 0.2}, "class_name": "Constant"}, "dilation_rate": [1, 1], "name": "conv2d_16", "kernel_constraint": null, "filters": 16, "kernel_size": [1, 1], "padding": "same", "kernel_regularizer": null, "data_format": "channels_last", "use_bias": true}, "inbound_nodes": [[["max_pool_3_3x3/2", 0, 0, {}]]], "class_name": "Conv2D", "name": "conv2d_16"}, {"config": {"padding": "same", "strides": [1, 1], "trainable": true, "pool_size": [3, 3], "data_format": "channels_last", "name": "max_pooling2d_3"}, "inbound_nodes": [[["max_pool_3_3x3/2", 0, 0, {}]]], "class_name": "MaxPooling2D", "name": "max_pooling2d_3"}, {"config": {"activity_regularizer": null, "bias_constraint": null, "activation": "relu", "strides": [1, 1], "bias_regularizer": null, "trainable": true, "kernel_initializer": {"config": {"seed": null, "scale": 1.0, "mode": "fan_avg", "distribution": "uniform"}, "class_name": "VarianceScaling"}, "bias_initializer": {"config": {"value": 0.2}, "class_name": "Constant"}, "dilation_rate": [1, 1], "name": "conv2d_13", "kernel_constraint": null, "filters": 192, "kernel_size": [1, 1], "padding": "same", "kernel_regularizer": null, "data_format": "channels_last", "use_bias": true}, "inbound_nodes": [[["max_pool_3_3x3/2", 0, 0, {}]]], "class_name": "Conv2D", "name": "conv2d_13"}, {"config": {"activity_regularizer": null, "bias_constraint": null, "activation": "relu", "strides": [1, 1], "bias_regularizer": null, "trainable": true, "kernel_initializer": {"config": {"seed": null, "scale": 1.0, "mode": "fan_avg", "distribution": "uniform"}, "class_name": "VarianceScaling"}, "bias_initializer": {"config": {"value": 0.2}, "class_name": "Constant"}, "dilation_rate": [1, 1], "name": "conv2d_15", "kernel_constraint": null, "filters": 208, "kernel_size": [3, 3], "padding": "same", "kernel_regularizer": null, "data_format": "channels_last", "use_bias": true}, "inbound_nodes": [[["conv2d_14", 0, 0, {}]]], "class_name": "Conv2D", "name": "conv2d_15"}, {"config": {"activity_regularizer": null, "bias_constraint": null, "activation": "relu", "strides": [1, 1], "bias_regularizer": null, "trainable": true, "kernel_initializer": {"config": {"seed": null, "scale": 1.0, "mode": "fan_avg", "distribution": "uniform"}, "class_name": "VarianceScaling"}, "bias_initializer": {"config": {"value": 0.2}, "class_name": "Constant"}, "dilation_rate": [1, 1], "name": "conv2d_17", "kernel_constraint": null, "filters": 48, "kernel_size": [5, 5], "padding": "same", "kernel_regularizer": null, "data_format": "channels_last", "use_bias": true}, "inbound_nodes": [[["conv2d_16", 0, 0, {}]]], "class_name": "Conv2D", "name": "conv2d_17"}, {"config": {"activity_regularizer": null, "bias_constraint": null, "activation": "relu", "strides": [1, 1], "bias_regularizer": null, "trainable": true, "kernel_initializer": {"config": {"seed": null, "scale": 1.0, "mode": "fan_avg", "distribution": "uniform"}, "class_name": "VarianceScaling"}, "bias_initializer": {"config": {"value": 0.2}, "class_name": "Constant"}, "dilation_rate": [1, 1], "name": "conv2d_18", "kernel_constraint": null, "filters": 64, "kernel_size": [1, 1], "padding": "same", "kernel_regularizer": null, "data_format": "channels_last", "use_bias": true}, "inbound_nodes": [[["max_pooling2d_3", 0, 0, {}]]], "class_name": "Conv2D", "name": "conv2d_18"}, {"config": {"trainable": true, "axis": 3, "name": "inception_4a"}, "inbound_nodes": [[["conv2d_13", 0, 0, {}], ["conv2d_15", 0, 0, {}], ["conv2d_17", 0, 0, {}], ["conv2d_18", 0, 0, {}]]], "class_name": "Concatenate", "name": "inception_4a"}, {"config": {"activity_regularizer": null, "bias_constraint": null, "activation": "relu", "strides": [1, 1], "bias_regularizer": null, "trainable": true, "kernel_initializer": {"config": {"seed": null, "scale": 1.0, "mode": "fan_avg", "distribution": "uniform"}, "class_name": "VarianceScaling"}, "bias_initializer": {"config": {"value": 0.2}, "class_name": "Constant"}, "dilation_rate": [1, 1], "name": "conv2d_21", "kernel_constraint": null, "filters": 112, "kernel_size": [1, 1], "padding": "same", "kernel_regularizer": null, "data_format": "channels_last", "use_bias": true}, "inbound_nodes": [[["inception_4a", 0, 0, {}]]], "class_name": "Conv2D", "name": "conv2d_21"}, {"config": {"activity_regularizer": null, "bias_constraint": null, "activation": "relu", "strides": [1, 1], "bias_regularizer": null, "trainable": true, "kernel_initializer": {"config": {"seed": null, "scale": 1.0, "mode": "fan_avg", "distribution": "uniform"}, "class_name": "VarianceScaling"}, "bias_initializer": {"config": {"value": 0.2}, "class_name": "Constant"}, "dilation_rate": [1, 1], "name": "conv2d_23", "kernel_constraint": null, "filters": 24, "kernel_size": [1, 1], "padding": "same", "kernel_regularizer": null, "data_format": "channels_last", "use_bias": true}, "inbound_nodes": [[["inception_4a", 0, 0, {}]]], "class_name": "Conv2D", "name": "conv2d_23"}, {"config": {"padding": "same", "strides": [1, 1], "trainable": true, "pool_size": [3, 3], "data_format": "channels_last", "name": "max_pooling2d_4"}, "inbound_nodes": [[["inception_4a", 0, 0, {}]]], "class_name": "MaxPooling2D", "name": "max_pooling2d_4"}, {"config": {"activity_regularizer": null, "bias_constraint": null, "activation": "relu", "strides": [1, 1], "bias_regularizer": null, "trainable": true, "kernel_initializer": {"config": {"seed": null, "scale": 1.0, "mode": "fan_avg", "distribution": "uniform"}, "class_name": "VarianceScaling"}, "bias_initializer": {"config": {"value": 0.2}, "class_name": "Constant"}, "dilation_rate": [1, 1], "name": "conv2d_20", "kernel_constraint": null, "filters": 160, "kernel_size": [1, 1], "padding": "same", "kernel_regularizer": null, "data_format": "channels_last", "use_bias": true}, "inbound_nodes": [[["inception_4a", 0, 0, {}]]], "class_name": "Conv2D", "name": "conv2d_20"}, {"config": {"activity_regularizer": null, "bias_constraint": null, "activation": "relu", "strides": [1, 1], "bias_regularizer": null, "trainable": true, "kernel_initializer": {"config": {"seed": null, "scale": 1.0, "mode": "fan_avg", "distribution": "uniform"}, "class_name": "VarianceScaling"}, "bias_initializer": {"config": {"value": 0.2}, "class_name": "Constant"}, "dilation_rate": [1, 1], "name": "conv2d_22", "kernel_constraint": null, "filters": 224, "kernel_size": [3, 3], "padding": "same", "kernel_regularizer": null, "data_format": "channels_last", "use_bias": true}, "inbound_nodes": [[["conv2d_21", 0, 0, {}]]], "class_name": "Conv2D", "name": "conv2d_22"}, {"config": {"activity_regularizer": null, "bias_constraint": null, "activation": "relu", "strides": [1, 1], "bias_regularizer": null, "trainable": true, "kernel_initializer": {"config": {"seed": null, "scale": 1.0, "mode": "fan_avg", "distribution": "uniform"}, "class_name": "VarianceScaling"}, "bias_initializer": {"config": {"value": 0.2}, "class_name": "Constant"}, "dilation_rate": [1, 1], "name": "conv2d_24", "kernel_constraint": null, "filters": 64, "kernel_size": [5, 5], "padding": "same", "kernel_regularizer": null, "data_format": "channels_last", "use_bias": true}, "inbound_nodes": [[["conv2d_23", 0, 0, {}]]], "class_name": "Conv2D", "name": "conv2d_24"}, {"config": {"activity_regularizer": null, "bias_constraint": null, "activation": "relu", "strides": [1, 1], "bias_regularizer": null, "trainable": true, "kernel_initializer": {"config": {"seed": null, "scale": 1.0, "mode": "fan_avg", "distribution": "uniform"}, "class_name": "VarianceScaling"}, "bias_initializer": {"config": {"value": 0.2}, "class_name": "Constant"}, "dilation_rate": [1, 1], "name": "conv2d_25", "kernel_constraint": null, "filters": 64, "kernel_size": [1, 1], "padding": "same", "kernel_regularizer": null, "data_format": "channels_last", "use_bias": true}, "inbound_nodes": [[["max_pooling2d_4", 0, 0, {}]]], "class_name": "Conv2D", "name": "conv2d_25"}, {"config": {"trainable": true, "axis": 3, "name": "inception_4b"}, "inbound_nodes": [[["conv2d_20", 0, 0, {}], ["conv2d_22", 0, 0, {}], ["conv2d_24", 0, 0, {}], ["conv2d_25", 0, 0, {}]]], "class_name": "Concatenate", "name": "inception_4b"}, {"config": {"activity_regularizer": null, "bias_constraint": null, "activation": "relu", "strides": [1, 1], "bias_regularizer": null, "trainable": true, "kernel_initializer": {"config": {"seed": null, "scale": 1.0, "mode": "fan_avg", "distribution": "uniform"}, "class_name": "VarianceScaling"}, "bias_initializer": {"config": {"value": 0.2}, "class_name": "Constant"}, "dilation_rate": [1, 1], "name": "conv2d_27", "kernel_constraint": null, "filters": 128, "kernel_size": [1, 1], "padding": "same", "kernel_regularizer": null, "data_format": "channels_last", "use_bias": true}, "inbound_nodes": [[["inception_4b", 0, 0, {}]]], "class_name": "Conv2D", "name": "conv2d_27"}, {"config": {"activity_regularizer": null, "bias_constraint": null, "activation": "relu", "strides": [1, 1], "bias_regularizer": null, "trainable": true, "kernel_initializer": {"config": {"seed": null, "scale": 1.0, "mode": "fan_avg", "distribution": "uniform"}, "class_name": "VarianceScaling"}, "bias_initializer": {"config": {"value": 0.2}, "class_name": "Constant"}, "dilation_rate": [1, 1], "name": "conv2d_29", "kernel_constraint": null, "filters": 24, "kernel_size": [1, 1], "padding": "same", "kernel_regularizer": null, "data_format": "channels_last", "use_bias": true}, "inbound_nodes": [[["inception_4b", 0, 0, {}]]], "class_name": "Conv2D", "name": "conv2d_29"}, {"config": {"padding": "same", "strides": [1, 1], "trainable": true, "pool_size": [3, 3], "data_format": "channels_last", "name": "max_pooling2d_5"}, "inbound_nodes": [[["inception_4b", 0, 0, {}]]], "class_name": "MaxPooling2D", "name": "max_pooling2d_5"}, {"config": {"activity_regularizer": null, "bias_constraint": null, "activation": "relu", "strides": [1, 1], "bias_regularizer": null, "trainable": true, "kernel_initializer": {"config": {"seed": null, "scale": 1.0, "mode": "fan_avg", "distribution": "uniform"}, "class_name": "VarianceScaling"}, "bias_initializer": {"config": {"value": 0.2}, "class_name": "Constant"}, "dilation_rate": [1, 1], "name": "conv2d_26", "kernel_constraint": null, "filters": 128, "kernel_size": [1, 1], "padding": "same", "kernel_regularizer": null, "data_format": "channels_last", "use_bias": true}, "inbound_nodes": [[["inception_4b", 0, 0, {}]]], "class_name": "Conv2D", "name": "conv2d_26"}, {"config": {"activity_regularizer": null, "bias_constraint": null, "activation": "relu", "strides": [1, 1], "bias_regularizer": null, "trainable": true, "kernel_initializer": {"config": {"seed": null, "scale": 1.0, "mode": "fan_avg", "distribution": "uniform"}, "class_name": "VarianceScaling"}, "bias_initializer": {"config": {"value": 0.2}, "class_name": "Constant"}, "dilation_rate": [1, 1], "name": "conv2d_28", "kernel_constraint": null, "filters": 256, "kernel_size": [3, 3], "padding": "same", "kernel_regularizer": null, "data_format": "channels_last", "use_bias": true}, "inbound_nodes": [[["conv2d_27", 0, 0, {}]]], "class_name": "Conv2D", "name": "conv2d_28"}, {"config": {"activity_regularizer": null, "bias_constraint": null, "activation": "relu", "strides": [1, 1], "bias_regularizer": null, "trainable": true, "kernel_initializer": {"config": {"seed": null, "scale": 1.0, "mode": "fan_avg", "distribution": "uniform"}, "class_name": "VarianceScaling"}, "bias_initializer": {"config": {"value": 0.2}, "class_name": "Constant"}, "dilation_rate": [1, 1], "name": "conv2d_30", "kernel_constraint": null, "filters": 64, "kernel_size": [5, 5], "padding": "same", "kernel_regularizer": null, "data_format": "channels_last", "use_bias": true}, "inbound_nodes": [[["conv2d_29", 0, 0, {}]]], "class_name": "Conv2D", "name": "conv2d_30"}, {"config": {"activity_regularizer": null, "bias_constraint": null, "activation": "relu", "strides": [1, 1], "bias_regularizer": null, "trainable": true, "kernel_initializer": {"config": {"seed": null, "scale": 1.0, "mode": "fan_avg", "distribution": "uniform"}, "class_name": "VarianceScaling"}, "bias_initializer": {"config": {"value": 0.2}, "class_name": "Constant"}, "dilation_rate": [1, 1], "name": "conv2d_31", "kernel_constraint": null, "filters": 64, "kernel_size": [1, 1], "padding": "same", "kernel_regularizer": null, "data_format": "channels_last", "use_bias": true}, "inbound_nodes": [[["max_pooling2d_5", 0, 0, {}]]], "class_name": "Conv2D", "name": "conv2d_31"}, {"config": {"trainable": true, "axis": 3, "name": "inception_4c"}, "inbound_nodes": [[["conv2d_26", 0, 0, {}], ["conv2d_28", 0, 0, {}], ["conv2d_30", 0, 0, {}], ["conv2d_31", 0, 0, {}]]], "class_name": "Concatenate", "name": "inception_4c"}, {"config": {"activity_regularizer": null, "bias_constraint": null, "activation": "relu", "strides": [1, 1], "bias_regularizer": null, "trainable": true, "kernel_initializer": {"config": {"seed": null, "scale": 1.0, "mode": "fan_avg", "distribution": "uniform"}, "class_name": "VarianceScaling"}, "bias_initializer": {"config": {"value": 0.2}, "class_name": "Constant"}, "dilation_rate": [1, 1], "name": "conv2d_33", "kernel_constraint": null, "filters": 144, "kernel_size": [1, 1], "padding": "same", "kernel_regularizer": null, "data_format": "channels_last", "use_bias": true}, "inbound_nodes": [[["inception_4c", 0, 0, {}]]], "class_name": "Conv2D", "name": "conv2d_33"}, {"config": {"activity_regularizer": null, "bias_constraint": null, "activation": "relu", "strides": [1, 1], "bias_regularizer": null, "trainable": true, "kernel_initializer": {"config": {"seed": null, "scale": 1.0, "mode": "fan_avg", "distribution": "uniform"}, "class_name": "VarianceScaling"}, "bias_initializer": {"config": {"value": 0.2}, "class_name": "Constant"}, "dilation_rate": [1, 1], "name": "conv2d_35", "kernel_constraint": null, "filters": 32, "kernel_size": [1, 1], "padding": "same", "kernel_regularizer": null, "data_format": "channels_last", "use_bias": true}, "inbound_nodes": [[["inception_4c", 0, 0, {}]]], "class_name": "Conv2D", "name": "conv2d_35"}, {"config": {"padding": "same", "strides": [1, 1], "trainable": true, "pool_size": [3, 3], "data_format": "channels_last", "name": "max_pooling2d_6"}, "inbound_nodes": [[["inception_4c", 0, 0, {}]]], "class_name": "MaxPooling2D", "name": "max_pooling2d_6"}, {"config": {"activity_regularizer": null, "bias_constraint": null, "activation": "relu", "strides": [1, 1], "bias_regularizer": null, "trainable": true, "kernel_initializer": {"config": {"seed": null, "scale": 1.0, "mode": "fan_avg", "distribution": "uniform"}, "class_name": "VarianceScaling"}, "bias_initializer": {"config": {"value": 0.2}, "class_name": "Constant"}, "dilation_rate": [1, 1], "name": "conv2d_32", "kernel_constraint": null, "filters": 112, "kernel_size": [1, 1], "padding": "same", "kernel_regularizer": null, "data_format": "channels_last", "use_bias": true}, "inbound_nodes": [[["inception_4c", 0, 0, {}]]], "class_name": "Conv2D", "name": "conv2d_32"}, {"config": {"activity_regularizer": null, "bias_constraint": null, "activation": "relu", "strides": [1, 1], "bias_regularizer": null, "trainable": true, "kernel_initializer": {"config": {"seed": null, "scale": 1.0, "mode": "fan_avg", "distribution": "uniform"}, "class_name": "VarianceScaling"}, "bias_initializer": {"config": {"value": 0.2}, "class_name": "Constant"}, "dilation_rate": [1, 1], "name": "conv2d_34", "kernel_constraint": null, "filters": 288, "kernel_size": [3, 3], "padding": "same", "kernel_regularizer": null, "data_format": "channels_last", "use_bias": true}, "inbound_nodes": [[["conv2d_33", 0, 0, {}]]], "class_name": "Conv2D", "name": "conv2d_34"}, {"config": {"activity_regularizer": null, "bias_constraint": null, "activation": "relu", "strides": [1, 1], "bias_regularizer": null, "trainable": true, "kernel_initializer": {"config": {"seed": null, "scale": 1.0, "mode": "fan_avg", "distribution": "uniform"}, "class_name": "VarianceScaling"}, "bias_initializer": {"config": {"value": 0.2}, "class_name": "Constant"}, "dilation_rate": [1, 1], "name": "conv2d_36", "kernel_constraint": null, "filters": 64, "kernel_size": [5, 5], "padding": "same", "kernel_regularizer": null, "data_format": "channels_last", "use_bias": true}, "inbound_nodes": [[["conv2d_35", 0, 0, {}]]], "class_name": "Conv2D", "name": "conv2d_36"}, {"config": {"activity_regularizer": null, "bias_constraint": null, "activation": "relu", "strides": [1, 1], "bias_regularizer": null, "trainable": true, "kernel_initializer": {"config": {"seed": null, "scale": 1.0, "mode": "fan_avg", "distribution": "uniform"}, "class_name": "VarianceScaling"}, "bias_initializer": {"config": {"value": 0.2}, "class_name": "Constant"}, "dilation_rate": [1, 1], "name": "conv2d_37", "kernel_constraint": null, "filters": 64, "kernel_size": [1, 1], "padding": "same", "kernel_regularizer": null, "data_format": "channels_last", "use_bias": true}, "inbound_nodes": [[["max_pooling2d_6", 0, 0, {}]]], "class_name": "Conv2D", "name": "conv2d_37"}, {"config": {"trainable": true, "axis": 3, "name": "inception_4d"}, "inbound_nodes": [[["conv2d_32", 0, 0, {}], ["conv2d_34", 0, 0, {}], ["conv2d_36", 0, 0, {}], ["conv2d_37", 0, 0, {}]]], "class_name": "Concatenate", "name": "inception_4d"}, {"config": {"activity_regularizer": null, "bias_constraint": null, "activation": "relu", "strides": [1, 1], "bias_regularizer": null, "trainable": true, "kernel_initializer": {"config": {"seed": null, "scale": 1.0, "mode": "fan_avg", "distribution": "uniform"}, "class_name": "VarianceScaling"}, "bias_initializer": {"config": {"value": 0.2}, "class_name": "Constant"}, "dilation_rate": [1, 1], "name": "conv2d_40", "kernel_constraint": null, "filters": 160, "kernel_size": [1, 1], "padding": "same", "kernel_regularizer": null, "data_format": "channels_last", "use_bias": true}, "inbound_nodes": [[["inception_4d", 0, 0, {}]]], "class_name": "Conv2D", "name": "conv2d_40"}, {"config": {"activity_regularizer": null, "bias_constraint": null, "activation": "relu", "strides": [1, 1], "bias_regularizer": null, "trainable": true, "kernel_initializer": {"config": {"seed": null, "scale": 1.0, "mode": "fan_avg", "distribution": "uniform"}, "class_name": "VarianceScaling"}, "bias_initializer": {"config": {"value": 0.2}, "class_name": "Constant"}, "dilation_rate": [1, 1], "name": "conv2d_42", "kernel_constraint": null, "filters": 32, "kernel_size": [1, 1], "padding": "same", "kernel_regularizer": null, "data_format": "channels_last", "use_bias": true}, "inbound_nodes": [[["inception_4d", 0, 0, {}]]], "class_name": "Conv2D", "name": "conv2d_42"}, {"config": {"padding": "same", "strides": [1, 1], "trainable": true, "pool_size": [3, 3], "data_format": "channels_last", "name": "max_pooling2d_7"}, "inbound_nodes": [[["inception_4d", 0, 0, {}]]], "class_name": "MaxPooling2D", "name": "max_pooling2d_7"}, {"config": {"activity_regularizer": null, "bias_constraint": null, "activation": "relu", "strides": [1, 1], "bias_regularizer": null, "trainable": true, "kernel_initializer": {"config": {"seed": null, "scale": 1.0, "mode": "fan_avg", "distribution": "uniform"}, "class_name": "VarianceScaling"}, "bias_initializer": {"config": {"value": 0.2}, "class_name": "Constant"}, "dilation_rate": [1, 1], "name": "conv2d_39", "kernel_constraint": null, "filters": 256, "kernel_size": [1, 1], "padding": "same", "kernel_regularizer": null, "data_format": "channels_last", "use_bias": true}, "inbound_nodes": [[["inception_4d", 0, 0, {}]]], "class_name": "Conv2D", "name": "conv2d_39"}, {"config": {"activity_regularizer": null, "bias_constraint": null, "activation": "relu", "strides": [1, 1], "bias_regularizer": null, "trainable": true, "kernel_initializer": {"config": {"seed": null, "scale": 1.0, "mode": "fan_avg", "distribution": "uniform"}, "class_name": "VarianceScaling"}, "bias_initializer": {"config": {"value": 0.2}, "class_name": "Constant"}, "dilation_rate": [1, 1], "name": "conv2d_41", "kernel_constraint": null, "filters": 320, "kernel_size": [3, 3], "padding": "same", "kernel_regularizer": null, "data_format": "channels_last", "use_bias": true}, "inbound_nodes": [[["conv2d_40", 0, 0, {}]]], "class_name": "Conv2D", "name": "conv2d_41"}, {"config": {"activity_regularizer": null, "bias_constraint": null, "activation": "relu", "strides": [1, 1], "bias_regularizer": null, "trainable": true, "kernel_initializer": {"config": {"seed": null, "scale": 1.0, "mode": "fan_avg", "distribution": "uniform"}, "class_name": "VarianceScaling"}, "bias_initializer": {"config": {"value": 0.2}, "class_name": "Constant"}, "dilation_rate": [1, 1], "name": "conv2d_43", "kernel_constraint": null, "filters": 128, "kernel_size": [5, 5], "padding": "same", "kernel_regularizer": null, "data_format": "channels_last", "use_bias": true}, "inbound_nodes": [[["conv2d_42", 0, 0, {}]]], "class_name": "Conv2D", "name": "conv2d_43"}, {"config": {"activity_regularizer": null, "bias_constraint": null, "activation": "relu", "strides": [1, 1], "bias_regularizer": null, "trainable": true, "kernel_initializer": {"config": {"seed": null, "scale": 1.0, "mode": "fan_avg", "distribution": "uniform"}, "class_name": "VarianceScaling"}, "bias_initializer": {"config": {"value": 0.2}, "class_name": "Constant"}, "dilation_rate": [1, 1], "name": "conv2d_44", "kernel_constraint": null, "filters": 128, "kernel_size": [1, 1], "padding": "same", "kernel_regularizer": null, "data_format": "channels_last", "use_bias": true}, "inbound_nodes": [[["max_pooling2d_7", 0, 0, {}]]], "class_name": "Conv2D", "name": "conv2d_44"}, {"config": {"trainable": true, "axis": 3, "name": "inception_4e"}, "inbound_nodes": [[["conv2d_39", 0, 0, {}], ["conv2d_41", 0, 0, {}], ["conv2d_43", 0, 0, {}], ["conv2d_44", 0, 0, {}]]], "class_name": "Concatenate", "name": "inception_4e"}, {"config": {"padding": "same", "strides": [2, 2], "trainable": true, "pool_size": [3, 3], "data_format": "channels_last", "name": "max_pool_4_3x3/2"}, "inbound_nodes": [[["inception_4e", 0, 0, {}]]], "class_name": "MaxPooling2D", "name": "max_pool_4_3x3/2"}, {"config": {"activity_regularizer": null, "bias_constraint": null, "activation": "relu", "strides": [1, 1], "bias_regularizer": null, "trainable": true, "kernel_initializer": {"config": {"seed": null, "scale": 1.0, "mode": "fan_avg", "distribution": "uniform"}, "class_name": "VarianceScaling"}, "bias_initializer": {"config": {"value": 0.2}, "class_name": "Constant"}, "dilation_rate": [1, 1], "name": "conv2d_46", "kernel_constraint": null, "filters": 160, "kernel_size": [1, 1], "padding": "same", "kernel_regularizer": null, "data_format": "channels_last", "use_bias": true}, "inbound_nodes": [[["max_pool_4_3x3/2", 0, 0, {}]]], "class_name": "Conv2D", "name": "conv2d_46"}, {"config": {"activity_regularizer": null, "bias_constraint": null, "activation": "relu", "strides": [1, 1], "bias_regularizer": null, "trainable": true, "kernel_initializer": {"config": {"seed": null, "scale": 1.0, "mode": "fan_avg", "distribution": "uniform"}, "class_name": "VarianceScaling"}, "bias_initializer": {"config": {"value": 0.2}, "class_name": "Constant"}, "dilation_rate": [1, 1], "name": "conv2d_48", "kernel_constraint": null, "filters": 32, "kernel_size": [1, 1], "padding": "same", "kernel_regularizer": null, "data_format": "channels_last", "use_bias": true}, "inbound_nodes": [[["max_pool_4_3x3/2", 0, 0, {}]]], "class_name": "Conv2D", "name": "conv2d_48"}, {"config": {"padding": "same", "strides": [1, 1], "trainable": true, "pool_size": [3, 3], "data_format": "channels_last", "name": "max_pooling2d_8"}, "inbound_nodes": [[["max_pool_4_3x3/2", 0, 0, {}]]], "class_name": "MaxPooling2D", "name": "max_pooling2d_8"}, {"config": {"activity_regularizer": null, "bias_constraint": null, "activation": "relu", "strides": [1, 1], "bias_regularizer": null, "trainable": true, "kernel_initializer": {"config": {"seed": null, "scale": 1.0, "mode": "fan_avg", "distribution": "uniform"}, "class_name": "VarianceScaling"}, "bias_initializer": {"config": {"value": 0.2}, "class_name": "Constant"}, "dilation_rate": [1, 1], "name": "conv2d_45", "kernel_constraint": null, "filters": 256, "kernel_size": [1, 1], "padding": "same", "kernel_regularizer": null, "data_format": "channels_last", "use_bias": true}, "inbound_nodes": [[["max_pool_4_3x3/2", 0, 0, {}]]], "class_name": "Conv2D", "name": "conv2d_45"}, {"config": {"activity_regularizer": null, "bias_constraint": null, "activation": "relu", "strides": [1, 1], "bias_regularizer": null, "trainable": true, "kernel_initializer": {"config": {"seed": null, "scale": 1.0, "mode": "fan_avg", "distribution": "uniform"}, "class_name": "VarianceScaling"}, "bias_initializer": {"config": {"value": 0.2}, "class_name": "Constant"}, "dilation_rate": [1, 1], "name": "conv2d_47", "kernel_constraint": null, "filters": 320, "kernel_size": [3, 3], "padding": "same", "kernel_regularizer": null, "data_format": "channels_last", "use_bias": true}, "inbound_nodes": [[["conv2d_46", 0, 0, {}]]], "class_name": "Conv2D", "name": "conv2d_47"}, {"config": {"activity_regularizer": null, "bias_constraint": null, "activation": "relu", "strides": [1, 1], "bias_regularizer": null, "trainable": true, "kernel_initializer": {"config": {"seed": null, "scale": 1.0, "mode": "fan_avg", "distribution": "uniform"}, "class_name": "VarianceScaling"}, "bias_initializer": {"config": {"value": 0.2}, "class_name": "Constant"}, "dilation_rate": [1, 1], "name": "conv2d_49", "kernel_constraint": null, "filters": 128, "kernel_size": [5, 5], "padding": "same", "kernel_regularizer": null, "data_format": "channels_last", "use_bias": true}, "inbound_nodes": [[["conv2d_48", 0, 0, {}]]], "class_name": "Conv2D", "name": "conv2d_49"}, {"config": {"activity_regularizer": null, "bias_constraint": null, "activation": "relu", "strides": [1, 1], "bias_regularizer": null, "trainable": true, "kernel_initializer": {"config": {"seed": null, "scale": 1.0, "mode": "fan_avg", "distribution": "uniform"}, "class_name": "VarianceScaling"}, "bias_initializer": {"config": {"value": 0.2}, "class_name": "Constant"}, "dilation_rate": [1, 1], "name": "conv2d_50", "kernel_constraint": null, "filters": 128, "kernel_size": [1, 1], "padding": "same", "kernel_regularizer": null, "data_format": "channels_last", "use_bias": true}, "inbound_nodes": [[["max_pooling2d_8", 0, 0, {}]]], "class_name": "Conv2D", "name": "conv2d_50"}, {"config": {"trainable": true, "axis": 3, "name": "inception_5a"}, "inbound_nodes": [[["conv2d_45", 0, 0, {}], ["conv2d_47", 0, 0, {}], ["conv2d_49", 0, 0, {}], ["conv2d_50", 0, 0, {}]]], "class_name": "Concatenate", "name": "inception_5a"}, {"config": {"activity_regularizer": null, "bias_constraint": null, "activation": "relu", "strides": [1, 1], "bias_regularizer": null, "trainable": true, "kernel_initializer": {"config": {"seed": null, "scale": 1.0, "mode": "fan_avg", "distribution": "uniform"}, "class_name": "VarianceScaling"}, "bias_initializer": {"config": {"value": 0.2}, "class_name": "Constant"}, "dilation_rate": [1, 1], "name": "conv2d_52", "kernel_constraint": null, "filters": 192, "kernel_size": [1, 1], "padding": "same", "kernel_regularizer": null, "data_format": "channels_last", "use_bias": true}, "inbound_nodes": [[["inception_5a", 0, 0, {}]]], "class_name": "Conv2D", "name": "conv2d_52"}, {"config": {"activity_regularizer": null, "bias_constraint": null, "activation": "relu", "strides": [1, 1], "bias_regularizer": null, "trainable": true, "kernel_initializer": {"config": {"seed": null, "scale": 1.0, "mode": "fan_avg", "distribution": "uniform"}, "class_name": "VarianceScaling"}, "bias_initializer": {"config": {"value": 0.2}, "class_name": "Constant"}, "dilation_rate": [1, 1], "name": "conv2d_54", "kernel_constraint": null, "filters": 48, "kernel_size": [1, 1], "padding": "same", "kernel_regularizer": null, "data_format": "channels_last", "use_bias": true}, "inbound_nodes": [[["inception_5a", 0, 0, {}]]], "class_name": "Conv2D", "name": "conv2d_54"}, {"config": {"padding": "same", "strides": [1, 1], "trainable": true, "pool_size": [3, 3], "data_format": "channels_last", "name": "max_pooling2d_9"}, "inbound_nodes": [[["inception_5a", 0, 0, {}]]], "class_name": "MaxPooling2D", "name": "max_pooling2d_9"}, {"config": {"padding": "valid", "strides": [3, 3], "trainable": true, "pool_size": [5, 5], "data_format": "channels_last", "name": "average_pooling2d_1"}, "inbound_nodes": [[["inception_4a", 0, 0, {}]]], "class_name": "AveragePooling2D", "name": "average_pooling2d_1"}, {"config": {"padding": "valid", "strides": [3, 3], "trainable": true, "pool_size": [5, 5], "data_format": "channels_last", "name": "average_pooling2d_2"}, "inbound_nodes": [[["inception_4d", 0, 0, {}]]], "class_name": "AveragePooling2D", "name": "average_pooling2d_2"}, {"config": {"activity_regularizer": null, "bias_constraint": null, "activation": "relu", "strides": [1, 1], "bias_regularizer": null, "trainable": true, "kernel_initializer": {"config": {"seed": null, "scale": 1.0, "mode": "fan_avg", "distribution": "uniform"}, "class_name": "VarianceScaling"}, "bias_initializer": {"config": {"value": 0.2}, "class_name": "Constant"}, "dilation_rate": [1, 1], "name": "conv2d_51", "kernel_constraint": null, "filters": 384, "kernel_size": [1, 1], "padding": "same", "kernel_regularizer": null, "data_format": "channels_last", "use_bias": true}, "inbound_nodes": [[["inception_5a", 0, 0, {}]]], "class_name": "Conv2D", "name": "conv2d_51"}, {"config": {"activity_regularizer": null, "bias_constraint": null, "activation": "relu", "strides": [1, 1], "bias_regularizer": null, "trainable": true, "kernel_initializer": {"config": {"seed": null, "scale": 1.0, "mode": "fan_avg", "distribution": "uniform"}, "class_name": "VarianceScaling"}, "bias_initializer": {"config": {"value": 0.2}, "class_name": "Constant"}, "dilation_rate": [1, 1], "name": "conv2d_53", "kernel_constraint": null, "filters": 384, "kernel_size": [3, 3], "padding": "same", "kernel_regularizer": null, "data_format": "channels_last", "use_bias": true}, "inbound_nodes": [[["conv2d_52", 0, 0, {}]]], "class_name": "Conv2D", "name": "conv2d_53"}, {"config": {"activity_regularizer": null, "bias_constraint": null, "activation": "relu", "strides": [1, 1], "bias_regularizer": null, "trainable": true, "kernel_initializer": {"config": {"seed": null, "scale": 1.0, "mode": "fan_avg", "distribution": "uniform"}, "class_name": "VarianceScaling"}, "bias_initializer": {"config": {"value": 0.2}, "class_name": "Constant"}, "dilation_rate": [1, 1], "name": "conv2d_55", "kernel_constraint": null, "filters": 128, "kernel_size": [5, 5], "padding": "same", "kernel_regularizer": null, "data_format": "channels_last", "use_bias": true}, "inbound_nodes": [[["conv2d_54", 0, 0, {}]]], "class_name": "Conv2D", "name": "conv2d_55"}, {"config": {"activity_regularizer": null, "bias_constraint": null, "activation": "relu", "strides": [1, 1], "bias_regularizer": null, "trainable": true, "kernel_initializer": {"config": {"seed": null, "scale": 1.0, "mode": "fan_avg", "distribution": "uniform"}, "class_name": "VarianceScaling"}, "bias_initializer": {"config": {"value": 0.2}, "class_name": "Constant"}, "dilation_rate": [1, 1], "name": "conv2d_56", "kernel_constraint": null, "filters": 128, "kernel_size": [1, 1], "padding": "same", "kernel_regularizer": null, "data_format": "channels_last", "use_bias": true}, "inbound_nodes": [[["max_pooling2d_9", 0, 0, {}]]], "class_name": "Conv2D", "name": "conv2d_56"}, {"config": {"activity_regularizer": null, "bias_constraint": null, "activation": "relu", "strides": [1, 1], "bias_regularizer": null, "trainable": true, "kernel_initializer": {"config": {"seed": null, "scale": 1.0, "mode": "fan_avg", "distribution": "uniform"}, "class_name": "VarianceScaling"}, "bias_initializer": {"config": {}, "class_name": "Zeros"}, "dilation_rate": [1, 1], "name": "conv2d_19", "kernel_constraint": null, "filters": 128, "kernel_size": [1, 1], "padding": "same", "kernel_regularizer": null, "data_format": "channels_last", "use_bias": true}, "inbound_nodes": [[["average_pooling2d_1", 0, 0, {}]]], "class_name": "Conv2D", "name": "conv2d_19"}, {"config": {"activity_regularizer": null, "bias_constraint": null, "activation": "relu", "strides": [1, 1], "bias_regularizer": null, "trainable": true, "kernel_initializer": {"config": {"seed": null, "scale": 1.0, "mode": "fan_avg", "distribution": "uniform"}, "class_name": "VarianceScaling"}, "bias_initializer": {"config": {}, "class_name": "Zeros"}, "dilation_rate": [1, 1], "name": "conv2d_38", "kernel_constraint": null, "filters": 128, "kernel_size": [1, 1], "padding": "same", "kernel_regularizer": null, "data_format": "channels_last", "use_bias": true}, "inbound_nodes": [[["average_pooling2d_2", 0, 0, {}]]], "class_name": "Conv2D", "name": "conv2d_38"}, {"config": {"trainable": true, "axis": 3, "name": "inception_5b"}, "inbound_nodes": [[["conv2d_51", 0, 0, {}], ["conv2d_53", 0, 0, {}], ["conv2d_55", 0, 0, {}], ["conv2d_56", 0, 0, {}]]], "class_name": "Concatenate", "name": "inception_5b"}, {"config": {"trainable": true, "data_format": "channels_last", "name": "flatten_1"}, "inbound_nodes": [[["conv2d_19", 0, 0, {}]]], "class_name": "Flatten", "name": "flatten_1"}, {"config": {"trainable": true, "data_format": "channels_last", "name": "flatten_2"}, "inbound_nodes": [[["conv2d_38", 0, 0, {}]]], "class_name": "Flatten", "name": "flatten_2"}, {"config": {"trainable": true, "data_format": "channels_last", "name": "avg_pool_5_3x3/1"}, "inbound_nodes": [[["inception_5b", 0, 0, {}]]], "class_name": "GlobalAveragePooling2D", "name": "avg_pool_5_3x3/1"}, {"config": {"activity_regularizer": null, "bias_initializer": {"config": {}, "class_name": "Zeros"}, "activation": "relu", "use_bias": true, "bias_regularizer": null, "kernel_constraint": null, "units": 1024, "bias_constraint": null, "name": "dense_1", "kernel_regularizer": null, "trainable": true, "kernel_initializer": {"config": {"seed": null, "scale": 1.0, "mode": "fan_avg", "distribution": "uniform"}, "class_name": "VarianceScaling"}}, "inbound_nodes": [[["flatten_1", 0, 0, {}]]], "class_name": "Dense", "name": "dense_1"}, {"config": {"activity_regularizer": null, "bias_initializer": {"config": {}, "class_name": "Zeros"}, "activation": "relu", "use_bias": true, "bias_regularizer": null, "kernel_constraint": null, "units": 1024, "bias_constraint": null, "name": "dense_2", "kernel_regularizer": null, "trainable": true, "kernel_initializer": {"config": {"seed": null, "scale": 1.0, "mode": "fan_avg", "distribution": "uniform"}, "class_name": "VarianceScaling"}}, "inbound_nodes": [[["flatten_2", 0, 0, {}]]], "class_name": "Dense", "name": "dense_2"}, {"config": {"rate": 0.4, "seed": null, "trainable": true, "noise_shape": null, "name": "dropout_3"}, "inbound_nodes": [[["avg_pool_5_3x3/1", 0, 0, {}]]], "class_name": "Dropout", "name": "dropout_3"}, {"config": {"rate": 0.7, "seed": null, "trainable": true, "noise_shape": null, "name": "dropout_1"}, "inbound_nodes": [[["dense_1", 0, 0, {}]]], "class_name": "Dropout", "name": "dropout_1"}, {"config": {"rate": 0.7, "seed": null, "trainable": true, "noise_shape": null, "name": "dropout_2"}, "inbound_nodes": [[["dense_2", 0, 0, {}]]], "class_name": "Dropout", "name": "dropout_2"}, {"config": {"activity_regularizer": null, "bias_initializer": {"config": {}, "class_name": "Zeros"}, "activation": "softmax", "use_bias": true, "bias_regularizer": null, "kernel_constraint": null, "units": 7, "bias_constraint": null, "name": "output", "kernel_regularizer": null, "trainable": true, "kernel_initializer": {"config": {"seed": null, "scale": 1.0, "mode": "fan_avg", "distribution": "uniform"}, "class_name": "VarianceScaling"}}, "inbound_nodes": [[["dropout_3", 0, 0, {}]]], "class_name": "Dense", "name": "output"}, {"config": {"activity_regularizer": null, "bias_initializer": {"config": {}, "class_name": "Zeros"}, "activation": "softmax", "use_bias": true, "bias_regularizer": null, "kernel_constraint": null, "units": 7, "bias_constraint": null, "name": "auxilliary_output_1", "kernel_regularizer": null, "trainable": true, "kernel_initializer": {"config": {"seed": null, "scale": 1.0, "mode": "fan_avg", "distribution": "uniform"}, "class_name": "VarianceScaling"}}, "inbound_nodes": [[["dropout_1", 0, 0, {}]]], "class_name": "Dense", "name": "auxilliary_output_1"}, {"config": {"activity_regularizer": null, "bias_initializer": {"config": {}, "class_name": "Zeros"}, "activation": "softmax", "use_bias": true, "bias_regularizer": null, "kernel_constraint": null, "units": 7, "bias_constraint": null, "name": "auxilliary_output_2", "kernel_regularizer": null, "trainable": true, "kernel_initializer": {"config": {"seed": null, "scale": 1.0, "mode": "fan_avg", "distribution": "uniform"}, "class_name": "VarianceScaling"}}, "inbound_nodes": [[["dropout_2", 0, 0, {}]]], "class_name": "Dense", "name": "auxilliary_output_2"}], "name": "inception_v1"}, "backend": "tensorflow", "class_name": "Model", "keras_version": "2.2.4"}